…
[32m+      custom_model.add(Dropout(0.3))
[32m+      custom_model.add(Dense(1, activation='sigmoid'))
[32m+      
[32m+      custom_model.summary()
[32m+    outputs:
[32m+      output 0:
[32m+        output_type: stream
[32m+        name: stdout
[32m+        text:
[32m+          Model: "sequential_3"
[32m+          _________________________________________________________________
[32m+          Layer (type)                 Output Shape              Param #   
[32m+          =================================================================
[32m+          conv2d_9 (Conv2D)            (None, 255, 255, 32)      416       
[32m+          _________________________________________________________________
[32m+          average_pooling2d (AveragePo (None, 127, 127, 32)      0         
[32m+          _________________________________________________________________
[32m+          conv2d_10 (Conv2D)           (None, 126, 126, 64)      8256      
[32m+          _________________________________________________________________
[32m+          dropout_1 (Dropout)          (None, 126, 126, 64)      0         
[32m+          _________________________________________________________________
[32m+          average_pooling2d_1 (Average (None, 63, 63, 64)        0         
[32m+          _________________________________________________________________
[32m+          conv2d_11 (Conv2D)           (None, 62, 62, 64)        16448     
[32m+          _________________________________________________________________
[32m+          max_pooling2d_9 (MaxPooling2 (None, 31, 31, 64)        0         
[32m+          _________________________________________________________________
[32m+          flatten_3 (Flatten)          (None, 61504)             0         
[32m+          _________________________________________________________________
[32m+          dense_6 (Dense)              (None, 64)                3936320   
[32m+          _________________________________________________________________
[32m+          dropout_2 (Dropout)          (None, 64)                0         
[32m+          _________________________________________________________________
[32m+          dense_7 (Dense)              (None, 1)                 65        
[32m+          =================================================================
[32m+          Total params: 3,961,505
[32m+          Trainable params: 3,961,505
[32m+          Non-trainable params: 0
[32m+          _________________________________________________________________
[32m+  code cell:
[32m+    execution_count: 26
[32m+    source:
[32m+      # Compile Model
[32m+      custom_model.compile(optimizer='rmsprop',
…
[32m+          text/plain: <PIL.Image.Image image mode=RGB size=256x256 at 0x7F7D50D73438>

[0m[34m## deleted /cells/10-12:[0m
[31m-  code cell:
[31m-    execution_count: 95
[31m-    outputs:
[31m-      output 0:
[31m-        output_type: stream
[31m-        name: stdout
[31m-        text:
[31m-          Model: "sequential_8"
[31m-          _________________________________________________________________
[31m-          Layer (type)                 Output Shape              Param #   
[31m-          =================================================================
[31m-          conv2d_7 (Conv2D)            (None, 215, 215, 32)      9632      
[31m-          _________________________________________________________________
[31m-          max_pooling2d_15 (MaxPooling (None, 43, 43, 32)        0         
[31m-          _________________________________________________________________
[31m-          conv2d_8 (Conv2D)            (None, 39, 39, 64)        51264     
[31m-          _________________________________________________________________
[31m-          max_pooling2d_16 (MaxPooling (None, 13, 13, 64)        0         
[31m-          _________________________________________________________________
[31m-          conv2d_9 (Conv2D)            (None, 9, 9, 64)          102464    
[31m-          _________________________________________________________________
[31m-          flatten_1 (Flatten)          (None, 5184)              0         
[31m-          _________________________________________________________________
[31m-          dense_15 (Dense)             (None, 64)                331840    
[31m-          _________________________________________________________________
[31m-          dense_16 (Dense)             (None, 1)                 65        
[31m-          =================================================================
[31m-          Total params: 495,265
[31m-          Trainable params: 495,265
[31m-          Non-trainable params: 0
[31m-          _________________________________________________________________
[31m-  code cell:
[31m-    execution_count: 96
[31m-    source:
[31m-      # Compile Model
[31m-  code cell:
…
[32m+[m[32mWARNING:tensorflow:From /home/ec2-user/anaconda3/envs/amazonei_tensorflow_p36/lib/python3.6/site-packages/tensorflow/python/ops/init_ops.py:1251: calling VarianceScaling.__init__ (from tensorflow.python.ops.init_ops) with dtype is deprecated and will be removed in a future version.[m
[32m+[m[32mInstructions for updating:[m
[32m+[m[32mCall initializer instance with the dtype argument instead of passing it to the constructor[m
[32m+[m[32mModel: "sequential"[m
 _________________________________________________________________[m
 Layer (type)                 Output Shape              Param #   [m
 =================================================================[m
[31m-conv2d_13 (Conv2D)           (None, 30, 30, 32)        896       [m
[32m+[m[32mconv2d (Conv2D)              (None, 30, 30, 32)        896[m[41m       [m
 _________________________________________________________________[m
[31m-max_pooling2d_9 (MaxPooling2 (None, 15, 15, 32)        0         [m
[32m+[m[32mmax_pooling2d (MaxPooling2D) (None, 15, 15, 32)        0[m[41m         [m
 _________________________________________________________________[m
[31m-conv2d_14 (Conv2D)           (None, 13, 13, 64)        18496     [m
[32m+[m[32mconv2d_1 (Conv2D)            (None, 13, 13, 64)        18496[m[41m     [m
 _________________________________________________________________[m
[31m-max_pooling2d_10 (MaxPooling (None, 6, 6, 64)          0         [m
[32m+[m[32mmax_pooling2d_1 (MaxPooling2 (None, 6, 6, 64)          0[m[41m         [m
 _________________________________________________________________[m
[31m-conv2d_15 (Conv2D)           (None, 4, 4, 64)          36928     [m
[32m+[m[32mconv2d_2 (Conv2D)            (None, 4, 4, 64)          36928[m[41m     [m
 _________________________________________________________________[m
[31m-flatten_2 (Flatten)          (None, 1024)              0         [m
[32m+[m[32mflatten (Flatten)            (None, 1024)              0[m[41m         [m
 _________________________________________________________________[m
[31m-dense_2 (Dense)              (None, 64)                65600     [m
[32m+[m[32mdense (Dense)                (None, 64)                65600[m[41m     [m
 _________________________________________________________________[m
[31m-dense_3 (Dense)              (None, 10)                650       [m
[32m+[m[32mdense_1 (Dense)              (None, 10)                650[m[41m       [m
 =================================================================[m
 Total params: 122,570[m
 Trainable params: 122,570[m

[0m[34m## replaced /cells/26/execution_count:[0m
[31m-  53
[32m+  12

[0m[34m## replaced /cells/27/execution_count:[0m
[31m-  54
[32m+  13

[0m[34m## modified /cells/27/outputs/0/text:[0m
[36m@@ -1,21 +1,21 @@[m
 Train on 50000 samples, validate on 10000 samples[m
…
